…
  File "./f00354_visual_question_answering.py", line 33, in test_visual_question_answering
    assert isinstance(visual_question_answering(image_path, question), str)
  File "./f00354_visual_question_answering.py", line 21, in visual_question_answering
    vqa_pipeline = pipeline(type='visual-question-answering', model=model, tokenizer=tokenizer)
  File "/root/miniconda3/envs/py38/lib/python3.8/site-packages/transformers/pipelines/__init__.py", line 758, in pipeline
    raise RuntimeError(
RuntimeError: Inferring the task automatically requires to check the hub with a model_id defined as a `str`.GitModel(
  (embeddings): GitEmbeddings(
    (word_embeddings): Embedding(30522, 768, padding_idx=0)
    (position_embeddings): Embedding(1024, 768)
    (LayerNorm): LayerNorm((768,), eps=1e-12, elementwise_affine=True)
    (dropout): Dropout(p=0.1, inplace=False)
  )
  (image_encoder): GitVisionModel(
    (vision_model): GitVisionTransformer(
      (embeddings): GitVisionEmbeddings(
        (patch_embedding): Conv2d(3, 768, kernel_size=(16, 16), stride=(16, 16), bias=False)
        (position_embedding): Embedding(901, 768)
      )
      (pre_layrnorm): LayerNorm((768,), eps=1e-05, elementwise_affine=True)
      (encoder): GitVisionEncoder(
        (layers): ModuleList(
          (0-11): 12 x GitVisionEncoderLayer(
            (self_attn): GitVisionAttention(
              (k_proj): Linear(in_features=768, out_features=768, bias=True)
              (v_proj): Linear(in_features=768, out_features=768, bias=True)
              (q_proj): Linear(in_features=768, out_features=768, bias=True)
              (out_proj): Linear(in_features=768, out_features=768, bias=True)
            )
            (layer_norm1): LayerNorm((768,), eps=1e-05, elementwise_affine=True)
            (mlp): GitVisionMLP(
              (activation_fn): QuickGELUActivation()
              (fc1): Linear(in_features=768, out_features=3072, bias=True)
              (fc2): Linear(in_features=3072, out_features=768, bias=True)
            )
            (layer_norm2): LayerNorm((768,), eps=1e-05, elementwise_affine=True)
          )
        )
      )
      (post_layernorm): LayerNorm((768,), eps=1e-05, elementwise_affine=True)
    )
  )
  (encoder): GitEncoder(
    (layer): ModuleList(
      (0-5): 6 x GitLayer(
        (attention): GitAttention(
          (self): GitSelfAttention(
            (query): Linear(in_features=768, out_features=768, bias=True)
            (key): Linear(in_features=768, out_features=768, bias=True)
            (value): Linear(in_features=768, out_features=768, bias=True)
            (dropout): Dropout(p=0.1, inplace=False)
          )
          (output): GitSelfOutput(
            (dense): Linear(in_features=768, out_features=768, bias=True)
            (LayerNorm): LayerNorm((768,), eps=1e-12, elementwise_affine=True)
            (dropout): Dropout(p=0.1, inplace=False)
          )
        )
        (intermediate): GitIntermediate(
          (dense): Linear(in_features=768, out_features=3072, bias=True)
          (intermediate_act_fn): GELUActivation()
        )
        (output): GitOutput(
          (dense): Linear(in_features=3072, out_features=768, bias=True)
          (LayerNorm): LayerNorm((768,), eps=1e-12, elementwise_affine=True)
          (dropout): Dropout(p=0.1, inplace=False)
        )
      )
    )
  )
  (visual_projection): GitProjection(
    (visual_projection): Sequential(
      (0): Linear(in_features=768, out_features=768, bias=True)
      (1): LayerNorm((768,), eps=1e-05, elementwise_affine=True)
    )
  )
) is not a valid model_id.
